…
      "Model: \"model\"\n",
      "__________________________________________________________________________________________________\n",
      "Layer (type)                    Output Shape         Param #     Connected to                     \n",
      "==================================================================================================\n",
      "input_1 (InputLayer)            [(None, 64, 64, 1)]  0                                            \n",
      "__________________________________________________________________________________________________\n",
      "conv2d (Conv2D)                 (None, 64, 64, 32)   320         input_1[0][0]                    \n",
      "__________________________________________________________________________________________________\n",
      "conv2d_1 (Conv2D)               (None, 64, 64, 32)   9248        conv2d[0][0]                     \n",
      "__________________________________________________________________________________________________\n",
      "conv2d_2 (Conv2D)               (None, 64, 64, 32)   9248        conv2d_1[0][0]                   \n",
      "__________________________________________________________________________________________________\n",
      "conv2d_3 (Conv2D)               (None, 64, 64, 32)   9248        conv2d_2[0][0]                   \n",
      "__________________________________________________________________________________________________\n",
      "batch_normalization (BatchNorma (None, 64, 64, 32)   128         conv2d_3[0][0]                   \n",
      "__________________________________________________________________________________________________\n",
      "max_pooling2d (MaxPooling2D)    (None, 32, 32, 32)   0           batch_normalization[0][0]        \n",
      "__________________________________________________________________________________________________\n",
      "conv2d_4 (Conv2D)               (None, 32, 32, 32)   25632       max_pooling2d[0][0]              \n",
      "__________________________________________________________________________________________________\n",
      "dropout (Dropout)               (None, 32, 32, 32)   0           conv2d_4[0][0]                   \n",
      "__________________________________________________________________________________________________\n",
      "conv2d_5 (Conv2D)               (None, 32, 32, 64)   18496       dropout[0][0]                    \n",
      "__________________________________________________________________________________________________\n",
      "conv2d_6 (Conv2D)               (None, 32, 32, 64)   36928       conv2d_5[0][0]                   \n",
      "__________________________________________________________________________________________________\n",
      "conv2d_7 (Conv2D)               (None, 32, 32, 64)   36928       conv2d_6[0][0]                   \n",
      "__________________________________________________________________________________________________\n",
      "conv2d_8 (Conv2D)               (None, 32, 32, 64)   36928       conv2d_7[0][0]                   \n",
      "__________________________________________________________________________________________________\n",
      "batch_normalization_1 (BatchNor (None, 32, 32, 64)   256         conv2d_8[0][0]                   \n",
      "__________________________________________________________________________________________________\n",
      "max_pooling2d_1 (MaxPooling2D)  (None, 16, 16, 64)   0           batch_normalization_1[0][0]      \n",
      "__________________________________________________________________________________________________\n",
      "conv2d_9 (Conv2D)               (None, 16, 16, 64)   102464      max_pooling2d_1[0][0]            \n",
      "__________________________________________________________________________________________________\n",
      "batch_normalization_2 (BatchNor (None, 16, 16, 64)   256         conv2d_9[0][0]                   \n",
      "__________________________________________________________________________________________________\n",
      "dropout_1 (Dropout)             (None, 16, 16, 64)   0           batch_normalization_2[0][0]      \n",
      "__________________________________________________________________________________________________\n",
      "conv2d_10 (Conv2D)              (None, 16, 16, 128)  73856       dropout_1[0][0]                  \n",
      "__________________________________________________________________________________________________\n",
      "conv2d_11 (Conv2D)              (None, 16, 16, 128)  147584      conv2d_10[0][0]                  \n",
      "__________________________________________________________________________________________________\n",
      "conv2d_12 (Conv2D)              (None, 16, 16, 128)  147584      conv2d_11[0][0]                  \n",
      "__________________________________________________________________________________________________\n",
      "conv2d_13 (Conv2D)              (None, 16, 16, 128)  147584      conv2d_12[0][0]                  \n",
      "__________________________________________________________________________________________________\n",
      "batch_normalization_3 (BatchNor (None, 16, 16, 128)  512         conv2d_13[0][0]                  \n",
      "__________________________________________________________________________________________________\n",
      "max_pooling2d_2 (MaxPooling2D)  (None, 8, 8, 128)    0           batch_normalization_3[0][0]      \n",
      "__________________________________________________________________________________________________\n",
      "conv2d_14 (Conv2D)              (None, 8, 8, 128)    409728      max_pooling2d_2[0][0]            \n",
      "__________________________________________________________________________________________________\n",
      "batch_normalization_4 (BatchNor (None, 8, 8, 128)    512         conv2d_14[0][0]                  \n",
      "__________________________________________________________________________________________________\n",
      "dropout_2 (Dropout)             (None, 8, 8, 128)    0           batch_normalization_4[0][0]      \n",
      "__________________________________________________________________________________________________\n",
      "conv2d_15 (Conv2D)              (None, 8, 8, 256)    295168      dropout_2[0][0]                  \n",
      "__________________________________________________________________________________________________\n",
      "conv2d_16 (Conv2D)              (None, 8, 8, 256)    590080      conv2d_15[0][0]                  \n",
      "__________________________________________________________________________________________________\n",
      "conv2d_17 (Conv2D)              (None, 8, 8, 256)    590080      conv2d_16[0][0]                  \n",
      "__________________________________________________________________________________________________\n",
      "conv2d_18 (Conv2D)              (None, 8, 8, 256)    590080      conv2d_17[0][0]                  \n",
      "__________________________________________________________________________________________________\n",
      "batch_normalization_5 (BatchNor (None, 8, 8, 256)    1024        conv2d_18[0][0]                  \n",
      "__________________________________________________________________________________________________\n",
      "max_pooling2d_3 (MaxPooling2D)  (None, 4, 4, 256)    0           batch_normalization_5[0][0]      \n",
      "__________________________________________________________________________________________________\n",
      "conv2d_19 (Conv2D)              (None, 4, 4, 256)    1638656     max_pooling2d_3[0][0]            \n",
      "__________________________________________________________________________________________________\n",
      "batch_normalization_6 (BatchNor (None, 4, 4, 256)    1024        conv2d_19[0][0]                  \n",
      "__________________________________________________________________________________________________\n",
      "dropout_3 (Dropout)             (None, 4, 4, 256)    0           batch_normalization_6[0][0]      \n",
      "__________________________________________________________________________________________________\n",
      "flatten (Flatten)               (None, 4096)         0           dropout_3[0][0]                  \n",
      "__________________________________________________________________________________________________\n",
      "dense (Dense)                   (None, 1024)         4195328     flatten[0][0]                    \n",
      "__________________________________________________________________________________________________\n",
      "dropout_4 (Dropout)             (None, 1024)         0           dense[0][0]                      \n",
      "__________________________________________________________________________________________________\n",
      "dense_1 (Dense)                 (None, 512)          524800      dropout_4[0][0]                  \n",
      "__________________________________________________________________________________________________\n",
      "root (Dense)                    (None, 168)          86184       dense_1[0][0]                    \n",
      "__________________________________________________________________________________________________\n",
      "vowel (Dense)                   (None, 11)           5643        dense_1[0][0]                    \n",
      "__________________________________________________________________________________________________\n",
      "consonant (Dense)               (None, 7)            3591        dense_1[0][0]                    \n",
      "==================================================================================================\n",
      "Total params: 9,735,098\n",
      "Trainable params: 9,733,242\n",
      "Non-trainable params: 1,856\n",
      "__________________________________________________________________________________________________\n"
     ]
    }
   ],
   "source": [
…
